{"modelTopology":{"class_name":"Model","config":{"name":"model146","layers":[{"name":"input146","class_name":"InputLayer","config":{"batch_input_shape":[null,5],"dtype":"float32","sparse":false,"name":"input146"},"inbound_nodes":[]},{"name":"batch_normalization_BatchNormalization146","class_name":"BatchNormalization","config":{"axis":-1,"momentum":0.99,"epsilon":0.001,"center":true,"scale":true,"beta_initializer":{"class_name":"Zeros","config":{}},"gamma_initializer":{"class_name":"Ones","config":{}},"moving_mean_initializer":{"class_name":"Zeros","config":{}},"moving_variance_initializer":{"class_name":"Ones","config":{}},"beta_regularizer":null,"gamma_regularizer":null,"beta_constraint":null,"gamma_constraint":null,"name":"batch_normalization_BatchNormalization146","trainable":true},"inbound_nodes":[[["input146",0,0,{}]]]},{"name":"dense_Dense581","class_name":"Dense","config":{"units":100,"activation":"relu","use_bias":true,"kernel_initializer":{"class_name":"VarianceScaling","config":{"scale":1,"mode":"fan_avg","distribution":"normal","seed":null}},"bias_initializer":{"class_name":"Zeros","config":{}},"kernel_regularizer":null,"bias_regularizer":null,"activity_regularizer":null,"kernel_constraint":null,"bias_constraint":null,"name":"dense_Dense581","trainable":true},"inbound_nodes":[[["batch_normalization_BatchNormalization146",0,0,{}]]]},{"name":"dense_Dense582","class_name":"Dense","config":{"units":98,"activation":"relu","use_bias":true,"kernel_initializer":{"class_name":"VarianceScaling","config":{"scale":1,"mode":"fan_avg","distribution":"normal","seed":null}},"bias_initializer":{"class_name":"Zeros","config":{}},"kernel_regularizer":null,"bias_regularizer":null,"activity_regularizer":null,"kernel_constraint":null,"bias_constraint":null,"name":"dense_Dense582","trainable":true},"inbound_nodes":[[["dense_Dense581",0,0,{}]]]},{"name":"dense_Dense583","class_name":"Dense","config":{"units":96,"activation":"relu","use_bias":true,"kernel_initializer":{"class_name":"VarianceScaling","config":{"scale":1,"mode":"fan_avg","distribution":"normal","seed":null}},"bias_initializer":{"class_name":"Zeros","config":{}},"kernel_regularizer":null,"bias_regularizer":null,"activity_regularizer":null,"kernel_constraint":null,"bias_constraint":null,"name":"dense_Dense583","trainable":true},"inbound_nodes":[[["dense_Dense582",0,0,{}]]]},{"name":"dense_Dense584","class_name":"Dense","config":{"units":1,"activation":"relu","use_bias":true,"kernel_initializer":{"class_name":"VarianceScaling","config":{"scale":1,"mode":"fan_avg","distribution":"normal","seed":null}},"bias_initializer":{"class_name":"Zeros","config":{}},"kernel_regularizer":null,"bias_regularizer":null,"activity_regularizer":null,"kernel_constraint":null,"bias_constraint":null,"name":"dense_Dense584","trainable":true},"inbound_nodes":[[["dense_Dense583",0,0,{}]]]}],"input_layers":[["input146",0,0]],"output_layers":[["dense_Dense584",0,0]]},"keras_version":"tfjs-layers 4.2.0","backend":"tensor_flow.js"},"weightsManifest":[{"paths":["weights.bin"],"weights":[{"name":"batch_normalization_BatchNormalization146/gamma","shape":[5],"dtype":"float32"},{"name":"batch_normalization_BatchNormalization146/beta","shape":[5],"dtype":"float32"},{"name":"dense_Dense581/kernel","shape":[5,100],"dtype":"float32"},{"name":"dense_Dense581/bias","shape":[100],"dtype":"float32"},{"name":"dense_Dense582/kernel","shape":[100,98],"dtype":"float32"},{"name":"dense_Dense582/bias","shape":[98],"dtype":"float32"},{"name":"dense_Dense583/kernel","shape":[98,96],"dtype":"float32"},{"name":"dense_Dense583/bias","shape":[96],"dtype":"float32"},{"name":"dense_Dense584/kernel","shape":[96,1],"dtype":"float32"},{"name":"dense_Dense584/bias","shape":[1],"dtype":"float32"},{"name":"batch_normalization_BatchNormalization146/moving_mean","shape":[5],"dtype":"float32"},{"name":"batch_normalization_BatchNormalization146/moving_variance","shape":[5],"dtype":"float32"}]}],"format":"layers-model","generatedBy":"TensorFlow.js tfjs-layers v4.2.0","convertedBy":null}