{"modelTopology":{"class_name":"Model","config":{"name":"model15","layers":[{"name":"input15","class_name":"InputLayer","config":{"batch_input_shape":[null,5],"dtype":"float32","sparse":false,"name":"input15"},"inbound_nodes":[]},{"name":"batch_normalization_BatchNormalization15","class_name":"BatchNormalization","config":{"axis":-1,"momentum":0.99,"epsilon":0.001,"center":true,"scale":true,"beta_initializer":{"class_name":"Zeros","config":{}},"gamma_initializer":{"class_name":"Ones","config":{}},"moving_mean_initializer":{"class_name":"Zeros","config":{}},"moving_variance_initializer":{"class_name":"Ones","config":{}},"beta_regularizer":null,"gamma_regularizer":null,"beta_constraint":null,"gamma_constraint":null,"name":"batch_normalization_BatchNormalization15","trainable":true},"inbound_nodes":[[["input15",0,0,{}]]]},{"name":"dense_Dense57","class_name":"Dense","config":{"units":100,"activation":"relu","use_bias":true,"kernel_initializer":{"class_name":"VarianceScaling","config":{"scale":1,"mode":"fan_avg","distribution":"normal","seed":null}},"bias_initializer":{"class_name":"Zeros","config":{}},"kernel_regularizer":null,"bias_regularizer":null,"activity_regularizer":null,"kernel_constraint":null,"bias_constraint":null,"name":"dense_Dense57","trainable":true},"inbound_nodes":[[["batch_normalization_BatchNormalization15",0,0,{}]]]},{"name":"dense_Dense58","class_name":"Dense","config":{"units":98,"activation":"relu","use_bias":true,"kernel_initializer":{"class_name":"VarianceScaling","config":{"scale":1,"mode":"fan_avg","distribution":"normal","seed":null}},"bias_initializer":{"class_name":"Zeros","config":{}},"kernel_regularizer":null,"bias_regularizer":null,"activity_regularizer":null,"kernel_constraint":null,"bias_constraint":null,"name":"dense_Dense58","trainable":true},"inbound_nodes":[[["dense_Dense57",0,0,{}]]]},{"name":"dense_Dense59","class_name":"Dense","config":{"units":96,"activation":"relu","use_bias":true,"kernel_initializer":{"class_name":"VarianceScaling","config":{"scale":1,"mode":"fan_avg","distribution":"normal","seed":null}},"bias_initializer":{"class_name":"Zeros","config":{}},"kernel_regularizer":null,"bias_regularizer":null,"activity_regularizer":null,"kernel_constraint":null,"bias_constraint":null,"name":"dense_Dense59","trainable":true},"inbound_nodes":[[["dense_Dense58",0,0,{}]]]},{"name":"dense_Dense60","class_name":"Dense","config":{"units":1,"activation":"relu","use_bias":true,"kernel_initializer":{"class_name":"VarianceScaling","config":{"scale":1,"mode":"fan_avg","distribution":"normal","seed":null}},"bias_initializer":{"class_name":"Zeros","config":{}},"kernel_regularizer":null,"bias_regularizer":null,"activity_regularizer":null,"kernel_constraint":null,"bias_constraint":null,"name":"dense_Dense60","trainable":true},"inbound_nodes":[[["dense_Dense59",0,0,{}]]]}],"input_layers":[["input15",0,0]],"output_layers":[["dense_Dense60",0,0]]},"keras_version":"tfjs-layers 4.2.0","backend":"tensor_flow.js"},"weightsManifest":[{"paths":["weights.bin"],"weights":[{"name":"batch_normalization_BatchNormalization15/gamma","shape":[5],"dtype":"float32"},{"name":"batch_normalization_BatchNormalization15/beta","shape":[5],"dtype":"float32"},{"name":"dense_Dense57/kernel","shape":[5,100],"dtype":"float32"},{"name":"dense_Dense57/bias","shape":[100],"dtype":"float32"},{"name":"dense_Dense58/kernel","shape":[100,98],"dtype":"float32"},{"name":"dense_Dense58/bias","shape":[98],"dtype":"float32"},{"name":"dense_Dense59/kernel","shape":[98,96],"dtype":"float32"},{"name":"dense_Dense59/bias","shape":[96],"dtype":"float32"},{"name":"dense_Dense60/kernel","shape":[96,1],"dtype":"float32"},{"name":"dense_Dense60/bias","shape":[1],"dtype":"float32"},{"name":"batch_normalization_BatchNormalization15/moving_mean","shape":[5],"dtype":"float32"},{"name":"batch_normalization_BatchNormalization15/moving_variance","shape":[5],"dtype":"float32"}]}],"format":"layers-model","generatedBy":"TensorFlow.js tfjs-layers v4.2.0","convertedBy":null}