{"modelTopology":{"class_name":"Sequential","config":{"name":"sequential_197","layers":[{"class_name":"Dense","config":{"units":64,"activation":"relu","use_bias":true,"kernel_initializer":{"class_name":"VarianceScaling","config":{"scale":1,"mode":"fan_avg","distribution":"normal","seed":null}},"bias_initializer":{"class_name":"Zeros","config":{}},"kernel_regularizer":{"class_name":"L1L2","config":{"l1":0,"l2":0.01}},"bias_regularizer":null,"activity_regularizer":null,"kernel_constraint":null,"bias_constraint":null,"name":"dense_Dense785","trainable":true,"batch_input_shape":[null,5],"dtype":"float32"}},{"class_name":"Dropout","config":{"rate":0.3,"noise_shape":null,"seed":null,"name":"dropout_Dropout589","trainable":true}},{"class_name":"Dense","config":{"units":32,"activation":"relu","use_bias":true,"kernel_initializer":{"class_name":"VarianceScaling","config":{"scale":1,"mode":"fan_avg","distribution":"normal","seed":null}},"bias_initializer":{"class_name":"Zeros","config":{}},"kernel_regularizer":{"class_name":"L1L2","config":{"l1":0,"l2":0.01}},"bias_regularizer":null,"activity_regularizer":null,"kernel_constraint":null,"bias_constraint":null,"name":"dense_Dense786","trainable":true}},{"class_name":"Dropout","config":{"rate":0.2,"noise_shape":null,"seed":null,"name":"dropout_Dropout590","trainable":true}},{"class_name":"Dense","config":{"units":16,"activation":"relu","use_bias":true,"kernel_initializer":{"class_name":"VarianceScaling","config":{"scale":1,"mode":"fan_avg","distribution":"normal","seed":null}},"bias_initializer":{"class_name":"Zeros","config":{}},"kernel_regularizer":{"class_name":"L1L2","config":{"l1":0,"l2":0.01}},"bias_regularizer":null,"activity_regularizer":null,"kernel_constraint":null,"bias_constraint":null,"name":"dense_Dense787","trainable":true}},{"class_name":"Dropout","config":{"rate":0.2,"noise_shape":null,"seed":null,"name":"dropout_Dropout591","trainable":true}},{"class_name":"Dense","config":{"units":1,"activation":"linear","use_bias":true,"kernel_initializer":{"class_name":"VarianceScaling","config":{"scale":1,"mode":"fan_avg","distribution":"normal","seed":null}},"bias_initializer":{"class_name":"Zeros","config":{}},"kernel_regularizer":{"class_name":"L1L2","config":{"l1":0,"l2":0.01}},"bias_regularizer":null,"activity_regularizer":null,"kernel_constraint":null,"bias_constraint":null,"name":"dense_Dense788","trainable":true}}]},"keras_version":"tfjs-layers 4.2.0","backend":"tensor_flow.js"},"weightsManifest":[{"paths":["weights.bin"],"weights":[{"name":"dense_Dense785/kernel","shape":[5,64],"dtype":"float32"},{"name":"dense_Dense785/bias","shape":[64],"dtype":"float32"},{"name":"dense_Dense786/kernel","shape":[64,32],"dtype":"float32"},{"name":"dense_Dense786/bias","shape":[32],"dtype":"float32"},{"name":"dense_Dense787/kernel","shape":[32,16],"dtype":"float32"},{"name":"dense_Dense787/bias","shape":[16],"dtype":"float32"},{"name":"dense_Dense788/kernel","shape":[16,1],"dtype":"float32"},{"name":"dense_Dense788/bias","shape":[1],"dtype":"float32"}]}],"format":"layers-model","generatedBy":"TensorFlow.js tfjs-layers v4.2.0","convertedBy":null}